ros_ws/src/utils/elmpso_models/pso_elm_model.npz (npz, 18060 bytes, 3 tensors)

W_hidden f8 [10, 30]
1.0 -0.9214136694807501 -1.0 1.0 1.0 1.0 -1.0 1.0
0.9503453823335911 0.8486292308489454 -1.0 0.7318842115115334 -0.33072055169062736 -1.0 0.6740741477198203 -1.0
-0.15641408524131506 -1.0 1.0 -0.9302675285660481 1.0 -0.029484662200008033 -0.7553804615325932 0.7632480231157838
1.0 0.519626974053766 -1.0 -0.21519592853003544 -0.9483584102248637 -1.0 -0.7414896324665872 1.0
0.12746609187149344 0.8237786020758264 1.0 1.0 1.0 -0.19115067696298038 0.24271091856190402 -1.0
-0.9957367789978249 1.0 -0.5499085007220813 1.0 -1.0 -1.0 1.0 -0.9445486452010295
-1.0 -1.0 0.4762816378736303 0.37229277894164037 -0.5863888342297476 0.07250615094138023 -1.0 0.8108397813651554
-0.3494423275099092 0.18888922793668805 1.0 1.0 -1.0 0.5499568781864799 1.0 0.042546865169506454
0.5474556473941423 -0.6490268101901984 0.994585545155648 1.0 -1.0 -0.8646279112871046 1.0 -1.0
-1.0 0.2047202678989113 -0.5256186727923599 0.8279845812221676 -1.0 -0.9481506343020165 1.0 1.0
0.16656418911131904 0.5250883070688012 1.0 -0.39237540710376423 0.10247688730202889 0.9546976018340765 1.0 -1.0
-0.9868689297873698 1.0 -1.0 0.7661746602193522 -1.0 0.5999111173391651 1.0 1.0
1.0 -1.0 -1.0 1.0 1.0 -0.9871744804751093 1.0 0.5738239223294064
0.40087485225365466 0.4657649469795596 -1.0 0.3215656939783284 -0.6747011441327643 1.0 1.0 0.5270603762152449
-0.605404799385196 0.8818875278466903 -0.16646397598611956 -1.0 -1.0 0.42428670273566194 -0.21064792819336803 -1.0
-1.0 -0.6298099898195051 1.0 -1.0 1.0 0.5565153527972445 -1.0 1.0
0.8673525476631816 0.09656672339621708 1.0 0.025298373608324598 -0.10382194280609897 -1.0 -0.20583473495281013 -1.0
1.0 0.7417059731888643 -0.3141863773329917 -1.0 0.12022716545207457 -1.0 1.0 0.9966898970468732
1.0 -0.9778223499164098 -0.5649606725763228 0.10376964447420572 -1.0 1.0 -1.0 -0.6731300332192752
-0.26965632938215695 1.0 0.2834478064217969 0.18795246587731515 0.10842534049662322 -1.0 0.7820977132193351 0.2012694202187284
-1.0 -0.5253274986079018 -1.0 1.0 0.6357824865998725 -1.0 0.35195958900323626 1.0
-0.011849167845296882 0.1991539204681161 1.0 -0.33414679669720526 -1.0 -1.0 1.0 1.0
1.0 -0.9458975508316474 -1.0 0.5047902297082778 -1.0 1.0 -1.0 1.0
-0.5010407011036824 0.07653499390051521 0.0575586070365835 -1.0 -1.0 0.7476987165113276 1.0 -0.10996303198744717
0.8870326559550417 1.0 0.04782468082752303 0.9000920012415146 0.5441805686252232 -0.6096329162562084 -0.9052429977482396 1.0
0.43436894604646525 -0.7712277146814863 1.0 -1.0 0.3873554988922696 -0.6344503471563157 1.0 -1.0
1.0 -1.0 0.49346319296586655 1.0 1.0 -1.0 0.4815772905935565 0.28788196500644825
-0.6820149945497875 -1.0 -1.0 -1.0 0.7512093455575071 -1.0 -0.9335226793445836 -1.0
0.3024687825539163 0.9928014666808463 -0.805272715233168 1.0 -0.4231625589701583 1.0 -0.9692489657840917 1.0
0.9971174238602114 0.21353554490446813 -1.0 -1.0 0.3551457571836543 -1.0 -0.9421668287833522 -0.21961697247470585
-0.10744624806082799 0.5890808708642805 -0.04541672635156166 -1.0 -0.5286963920002954 -0.5407394451705027 0.2095234372879758 -1.0
-1.0 -0.6029957877413852 -1.0 -0.5984590964037494 -0.9433168516362738 -1.0 -1.0 -0.3569477070195046
00000000: 0000 0000 0000 f03f c73a 1085 387c edbf
00000010: 0000 0000 0000 f0bf 0000 0000 0000 f03f
00000020: 0000 0000 0000 f03f 0000 0000 0000 f03f
00000030: 0000 0000 0000 f0bf 0000 0000 0000 f03f
00000040: 61e0 20b8 3a69 ee3f 9aa0 1d7d f827 eb3f
00000050: 0000 0000 0000 f0bf 36d3 1c70 986b e73f
00000060: a915 6888 862a d5bf 0000 0000 0000 f0bf
00000070: 7724 71f2 0392 e53f 0000 0000 0000 f0bf
00000080: dc62 5f72 6005 c4bf 0000 0000 0000 f0bf
00000090: 0000 0000 0000 f03f fd19 7768 c0c4 edbf
000000a0: 0000 0000 0000 f03f 48d3 872f 3a31 9ebf
000000b0: 683c 4aa5 132c e8bf 2f9b 401e 876c e83f
000000c0: 0000 0000 0000 f03f 8ec5 75bf c8a0 e03f
000000d0: 0000 0000 0000 f0bf dc69 a249 8a8b cbbf
000000e0: c8ac 99bc f358 eebf 0000 0000 0000 f0bf
000000f0: b08b 3877 48ba e7bf 0000 0000 0000 f03f
00000100: 7aef f713 cf50 c03f c0ed 61f1 645c ea3f
00000110: 0000 0000 0000 f03f 0000 0000 0000 f03f
00000120: 0000 0000 0000 f03f 8406 1519 a077 c8bf
00000130: ee80 cdc0 2611 cf3f 0000 0000 0000 f0bf
00000140: 8c0a a760 13dd efbf 0000 0000 0000 f03f
00000150: 7399 4cb6 d998 e1bf 0000 0000 0000 f03f
00000160: 0000 0000 0000 f0bf 0000 0000 0000 f0bf
00000170: 0000 0000 0000 f03f 2fd3 9314 be39 eebf
00000180: 0000 0000 0000 f0bf 0000 0000 0000 f0bf
00000190: 4c90 96fa 657b de3f e8d7 8517 a5d3 d73f
000001a0: de33 3884 b2c3 e2bf 4f54 0d5b c38f b23f
000001b0: 0000 0000 0000 f0bf d14a e844 66f2 e93f
000001c0: 4890 1f5a 435d d6bf 8802 47b0 852d c83f
000001d0: 0000 0000 0000 f03f 0000 0000 0000 f03f
000001e0: 0000 0000 0000 f0bf 90ad c02a 3f99 e13f
000001f0: 0000 0000 0000 f03f 8094 e6e4 b3c8 a53f
00000200: ea2f b2b4 c184 e13f aecf 7fdf d3c4 e4bf
00000210: 2492 b010 a5d3 ef3f 0000 0000 0000 f03f
00000220: 0000 0000 0000 f0bf 1dfb 4527 08ab ebbf
00000230: 0000 0000 0000 f03f 0000 0000 0000 f0bf
00000240: 0000 0000 0000 f0bf a822 ba13 4634 ca3f
00000250: 6dec 3940 ded1 e0bf 7c20 3e85 d97e ea3f
00000260: 0000 0000 0000 f0bf 3a48 c0ff 3f57 eebf
00000270: 0000 0000 0000 f03f 0000 0000 0000 f03f
00000280: ea7c 75b0 f951 c53f 93eb 4bfe 85cd e03f
00000290: 0000 0000 0000 f03f 8dfb 50bd ad1c d9bf
000002a0: 1adf 8edf ec3b ba3f ba4d 2efc e18c ee3f
000002b0: 0000 0000 0000 f03f 0000 0000 0000 f0bf
000002c0: 3e02 5c26 6e94 efbf 0000 0000 0000 f03f
000002d0: 0000 0000 0000 f0bf 1e50 95b8 8084 e83f
000002e0: 0000 0000 0000 f0bf 2450 afcc 7832 e33f
000002f0: 0000 0000 0000 f03f 0000 0000 0000 f03f
00000300: 0000 0000 0000 f03f 0000 0000 0000 f0bf
00000310: 0000 0000 0000 f0bf 0000 0000 0000 f03f
00000320: 0000 0000 0000 f03f aac3 a2ef ee96 efbf
00000330: 0000 0000 0000 f03f de26 82fc c35c e23f
00000340: 47f8 0dff eea7 d93f de9f b9c7 17cf dd3f
00000350: 0000 0000 0000 f0bf fbc1 c946 8894 d43f
00000360: d9f7 93da 2697 e5bf 0000 0000 0000 f03f
00000370: 0000 0000 0000 f03f f594 dbb8 addd e03f
00000380: 6d6d c6e2 795f e3bf 2542 5b31 6c38 ec3f
00000390: 1a48 690a b14e c5bf 0000 0000 0000 f0bf
000003a0: 0000 0000 0000 f0bf 5e26 186a 8327 db3f
000003b0: 1ac4 47e5 82f6 cabf 0000 0000 0000 f0bf
000003c0: 0000 0000 0000 f0bf f600 9f47 6727 e4bf
000003d0: 0000 0000 0000 f03f 0000 0000 0000 f0bf
000003e0: 0000 0000 0000 f03f dd8d ff48 f9ce e13f
000003f0: 0000 0000 0000 f0bf 0000 0000 0000 f03f
00000400: c619 4a21 5ac1 eb3f 905e dec6 98b8 b83f
00000410: 0000 0000 0000 f03f 90b2 281d d1e7 993f
00000420: c499 f528 1394 babf 0000 0000 0000 f0bf
00000430: 2467 80e7 ca58 cabf 0000 0000 0000 f0bf
00000440: 0000 0000 0000 f03f 4102 432a 0ebc e73f
00000450: 4e9c df2d a11b d4bf 0000 0000 0000 f0bf
00000460: e01a b51f 35c7 be3f 0000 0000 0000 f0bf
00000470: 0000 0000 0000 f03f d83c 0236 e2e4 ef3f
00000480: 0000 0000 0000 f03f 0c0b c618 524a efbf
00000490: 20ba 8767 2814 e2bf 1c92 55bd a590 ba3f
000004a0: 0000 0000 0000 f0bf 0000 0000 0000 f03f
000004b0: 0000 0000 0000 f0bf d33a d4fe 478a e5bf
000004c0: e7c4 f69e 0c42 d1bf 0000 0000 0000 f03f
000004d0: 7417 ad44 0224 d23f d3a3 128f d30e c83f
000004e0: f89b 7d5b c3c1 bb3f 0000 0000 0000 f0bf
000004f0: b5b5 91c8 f106 e93f e81c c344 32c3 c93f
00000500: 0000 0000 0000 f0bf cbbb 469d 7bcf e0bf
00000510: 0000 0000 0000 f0bf 0000 0000 0000 f03f
00000520: c21c 6a83 5458 e43f 0000 0000 0000 f0bf
00000530: 7f14 1283 8186 d63f 0000 0000 0000 f03f
00000540: c0fc 0a63 6044 88bf 69ef a32b e07d c93f
00000550: 0000 0000 0000 f03f 8a2b f83e a962 d5bf
00000560: 0000 0000 0000 f0bf 0000 0000 0000 f0bf
00000570: 0000 0000 0000 f03f 0000 0000 0000 f03f
00000580: 0000 0000 0000 f03f 9007 c6f0 ca44 eebf
00000590: 0000 0000 0000 f0bf 06ff fdd6 3d27 e03f
000005a0: 0000 0000 0000 f0bf 0000 0000 0000 f03f
000005b0: 0000 0000 0000 f0bf 0000 0000 0000 f03f
000005c0: 3891 2682 8608 e0bf b861 cd1f cc97 b33f
000005d0: 48a0 a65d 5278 ad3f 0000 0000 0000 f0bf
000005e0: 0000 0000 0000 f0bf aaac d5db 25ed e73f
000005f0: 0000 0000 0000 f03f d0b3 278a 8926 bcbf
00000600: 16f3 f94e 9262 ec3f 0000 0000 0000 f03f
00000610: 3413 3100 7a7c a83f e226 97bd 8dcd ec3f
00000620: 08a6 2b5e ed69 e13f 3256 bce3 1c82 e3bf
00000630: c55f c829 c0f7 ecbf 0000 0000 0000 f03f
00000640: 40b9 6a68 b3cc db3f fa6c 8abe e5ad e8bf
00000650: 0000 0000 0000 f03f 0000 0000 0000 f0bf
00000660: 88c1 eab7 6eca d83f 721c 7fd0 6a4d e4bf
00000670: 0000 0000 0000 f03f 0000 0000 0000 f0bf
00000680: 0000 0000 0000 f03f 0000 0000 0000 f0bf
00000690: 4f5c e4a4 e694 df3f 0000 0000 0000 f03f
000006a0: 0000 0000 0000 f03f 0000 0000 0000 f0bf
000006b0: 881e 668e 29d2 de3f fae5 337a a86c d23f
000006c0: 7422 1f1c 11d3 e5bf 0000 0000 0000 f0bf
000006d0: 0000 0000 0000 f0bf 0000 0000 0000 f0bf
000006e0: 4ecf 732e e809 e83f 0000 0000 0000 f0bf
000006f0: 3b7f 3bf4 6adf edbf 0000 0000 0000 f0bf
00000700: 0452 4806 a65b d33f 0b15 da94 07c5 ef3f
00000710: d633 0949 cbc4 e9bf 0000 0000 0000 f03f
00000720: bac8 ea69 1815 dbbf 0000 0000 0000 f03f
00000730: 142f 3768 1604 efbf 0000 0000 0000 f03f
00000740: 4a0b b8cc 62e8 ef3f 34f9 f2fa 2155 cb3f
00000750: 0000 0000 0000 f0bf 0000 0000 0000 f0bf
00000760: 59af 1a45 b5ba d63f 0000 0000 0000 f0bf
00000770: 5604 a00c 3b26 eebf 4e73 36b1 681c ccbf
00000780: edc8 7fe9 9881 bbbf 0af6 6120 c0d9 e23f
00000790: 1c20 be74 dc40 a7bf 0000 0000 0000 f0bf
000007a0: 60f1 24b2 14eb e0bf 8943 15cf bc4d e1bf
000007b0: cadc 72fb a9d1 ca3f 0000 0000 0000 f0bf
000007c0: 0000 0000 0000 f0bf 4233 7fd2 bd4b e3bf
000007d0: 0000 0000 0000 f0bf b387 e1b0 9326 e3bf
000007e0: 3064 71d2 a62f eebf 0000 0000 0000 f0bf
000007f0: 0000 0000 0000 f0bf 48fb 0132 3bd8 d6bf

b f8 [30]
1.0 -0.4369049407253865 0.6336502049781698 1.0 -0.9580182237069116 -1.0 1.0 -1.0
1.0 -0.823101348521805 1.0 0.09206742981521858 -1.0 0.8808054361472737 -0.4833816977227938 -1.0
1.0 0.9829844091054013 1.0 -0.41942251207542247 -0.11318321985608348 -0.10440721541761067 -1.0 -1.0
-0.31162888931368227 1.0 1.0 0.18685376556067823 -0.7078525803879707 -1.0
00000000: 0000 0000 0000 f03f 2d16 f823 40f6 dbbf
00000010: 9884 6fcb dc46 e43f 0000 0000 0000 f03f
00000020: df61 79d5 15a8 eebf 0000 0000 0000 f0bf
00000030: 0000 0000 0000 f03f 0000 0000 0000 f0bf
00000040: 0000 0000 0000 f03f 943a a6a3 d856 eabf
00000050: 0000 0000 0000 f03f 9b48 1528 bb91 b73f
00000060: 0000 0000 0000 f0bf a287 cce1 8e2f ec3f
00000070: 3014 cdc9 b9ef debf 0000 0000 0000 f0bf
00000080: 0000 0000 0000 f03f 19bd 32b8 9b74 ef3f
00000090: 0000 0000 0000 f03f 987c 2485 d1d7 dabf
000000a0: 28e4 bc53 93f9 bcbf 6860 af67 6eba babf
000000b0: 0000 0000 0000 f0bf 0000 0000 0000 f0bf
000000c0: 14d4 054c baf1 d3bf 0000 0000 0000 f03f
000000d0: 0000 0000 0000 f03f 24d9 1bfe d2ea c73f
000000e0: 3afa 6474 baa6 e6bf 0000 0000 0000 f0bf

W_output f8 [30, 60]
-0.1533303746566043 -0.05840598786091918 0.21157843810521948 0.0823072761417347 -0.027967142444985795 -0.01188491756149009 -0.05840598786091918 -0.1533303746566043
0.0751535700177173 -0.12000845277415594 -0.08230727614173482 -0.09701011506956081 0.15210434180627466 -0.05840598786091918 0.15740861253804028 0.1784595369887484
-0.6603716881630813 -0.02777633903292713 -0.05840598786091918 0.15210434180627466 0.056199834707900645 -0.11321749723868023 -0.1784595369887482 -0.0618663176927572
-0.006345376579739718 -0.05840598786091918 0.12716221383609239 0.20592593337713386 -0.5234855976151825 -0.019187093071789327 -0.05840598786091918 -0.006345376579739718
0.06253364761937177 -0.060043604766079096 -0.20592593337713383 -0.019635859058502177 -0.28806545455356797 -0.05840598786091918 0.060179672591353116 0.09388690133753619
-0.06476438266711083 0.03756106707233617 -0.05840598786091918 -0.28806545455356797 0.1581673237167896 -0.027484602236669774 -0.09388690133753587 0.009282111446711407
-0.07315546284041712 -0.05840598786091892 0.14898653557025782 0.14615161815714242 -0.1978394319250054 0.005664326093731627 -0.05840598786091892 -0.07315546284041712
0.10436529546699563 -0.09059746228077512 -0.14615161815714237 -0.0255438221583954 -1.795946963111799 0.0701656820732089 -0.827467043440156 -0.03311070974195743
-0.03113756341927842 -0.04496899261332859 0.0701656820732089 -1.795946963111799 -0.0985445900919889 -0.13642648377791952 0.0331107097419573 0.3913166154386019
-1.6795044661802674 0.0701656820732089 0.322892002571277 -0.10521972118351515 0.42444896679312133 -0.048291447364080003 0.0701656820732089 -1.6795044661802674
-0.07738256391178251 -0.15573342722712183 0.10521972118351476 -0.1283269014722498 -1.5341161384052713 0.0701656820732089 0.29788219986509396 0.000978037590683926
0.3897923997648206 0.07679521949433019 0.0701656820732089 -1.5341161384052713 0.22643442194205834 -0.09036025900141552 -0.0009780375906839592 -0.15917853921435213
-1.5793964239420353 0.0701656820732089 -0.6497757603944985 -0.158449150681649 0.0027240292952636328 0.13119233452689522 0.0701656820732089 -1.5793964239420353
0.2816065713793799 -0.06845304890349983 0.15844915068164847 0.2777981073439678 -1.5806717568353394 0.07016568207320927 -0.12413725476858833 -0.07601511474276015
0.27824871175495147 0.03748880023407293 0.07016568207320927 -1.5806717568353394 0.09072475816389669 -0.16299732095740319 0.07601511474276043 0.06068849652758509
7.273792095360601 -0.020400988046703705 2.7594962949688555 -0.5209887840294418 0.40015323436076244 0.3533016080819806 -0.020400988046703705 7.273792095360601
0.9335494389824321 0.6502226359516975 0.520988784029442 -1.1838436285277665 6.728085617924736 -0.020400988046703705 -1.9010853998463542 -0.03749230110991642
0.5582359738400338 0.2977173920424689 -0.020400988046703705 6.728085617924736 0.7964545211696935 0.6801136975099115 0.03749230110991808 1.24286560431976
6.992747990968415 -0.020400988046703705 -1.743066475895693 -0.6654128533661023 0.29131045001538464 -0.3959674412297939 -0.020400988046703705 6.992747990968415
-0.7458769445752013 0.5789151348259896 0.6654128533661028 1.1147153353295354 6.852463820505258 -0.020400988046703705 2.5137647679272868 0.025714354226568974
0.35243608735681053 -0.4663238793942813 -0.020400988046703705 6.852463820505258 -0.8636305918515843 0.5774722221834543 -0.0257143542265689 -1.1744183909762196
7.015151558775441 -0.02040098804670437 0.2775618704574967 -0.3045474188331043 -0.42450220541018635 -0.017420503982322772 -0.02040098804670437 7.015151558775441
0.02514442204315269 0.862711166882549 0.30454741883310443 -0.06927184860693684 -2.203802956547201 0.09170881067177432 -0.6890679988619872 -0.04771556890010555
0.05162365184395423 0.05585353158114053 0.09170881067177432 -2.203802956547201 0.0361484796146608 -0.04449260405323115 0.04771556890010498 0.33878105487100846
-2.0467910393157855 0.09170881067177432 0.7862561786729446 -0.033897123003187736 -0.11855718998468172 0.06684452672811579 0.09170881067177432 -2.0467910393157855
0.0693942191455508 -0.07347307202718889 0.03389712300318806 -0.5575427131967815 -1.9966307769944565 0.09170881067177432 0.6644373114886882 0.20578959681855416
0.17315800243104454 0.20356165266581172 0.09170881067177432 -1.9966307769944565 0.4546082516096164 0.1136147490425664 -0.20578959681855424 -0.4114436170154144
-2.0670465477384417 0.09170881067177432 -0.6256011196220832 -0.18062649230799277 0.13344957117668257 0.2637734719421088 0.09170881067177432 -2.0670465477384417
0.5139366503067416 0.15139071501001358 0.18062649230799266 0.31518326973301497 -2.0028220298621005 0.09170881067177644 -0.006159190314446575 -0.025630289484304083
0.3499914399221218 0.14190239989712164 0.09170881067177644 -2.0028220298621005 0.27714569979386444 0.0032333453775110488 0.025630289484303598 0.08968335546781642
-0.33043710324333464 -0.12579733381625088 0.31151141128587184 0.28303132798863306 -0.07947504629563677 -0.09335800729091419 -0.12579733381625088 -0.33043710324333464
-0.0434726172017305 -0.17350697032353116 -0.2830313279886327 -0.17881145815425425 0.006186736592014893 -0.12579733381625088 0.24952487084423808 0.4317598121148202
00000000: ed17 5168 54a0 c3bf 2ba6 81bf 63e7 adbf
00000010: d0af 1994 0015 cb3f 4f68 40f3 1612 b53f
00000020: e7b7 a728 6ba3 9cbf eb23 f0a1 1e57 88bf
00000030: 2ba6 81bf 63e7 adbf ed17 5168 54a0 c3bf
00000040: a25b 67ad 433d b33f 6797 e8bb dfb8 bebf
00000050: 5768 40f3 1612 b5bf b0de 9aa7 a7d5 b8bf
00000060: 699b d1b2 2778 c33f 2ba6 81bf 63e7 adbf
00000070: c8d4 7a25 f725 c43f 3453 8319 c3d7 c63f
00000080: fdab 7bce c321 e5bf cc01 ff8e 6671 9cbf
00000090: 2ba6 81bf 63e7 adbf 699b d1b2 2778 c33f
000000a0: 1ada 3888 39c6 ac3f 47a0 f967 d2fb bcbf
000000b0: 2d53 8319 c3d7 c6bf c2bd 6d26 f1ac afbf
000000c0: 44a9 400e 9cfd 79bf 2ba6 81bf 63e7 adbf
000000d0: c842 dbf6 d946 c03f 6d64 a0ee c75b ca3f
000000e0: 2be5 35de 64c0 e0bf 5c9c fe04 c8a5 93bf
000000f0: 2ba6 81bf 63e7 adbf 44a9 400e 9cfd 79bf
00000100: 0abf 6c83 3402 b03f e5c7 9b0d 09be aebf
00000110: 6c64 a0ee c75b cabf 7fc6 f031 6c1b 94bf
00000120: 858e 9a16 aa6f d2bf 2ba6 81bf 63e7 adbf
00000130: 0be4 53bb decf ae3f a87a c4d2 f808 b83f
00000140: 0939 8009 6694 b0bf 6c6a 5b45 343b a33f
00000150: 2ba6 81bf 63e7 adbf 858e 9a16 aa6f d2bf
00000160: 1269 54ad d33e c43f 1311 006f ec24 9cbf
00000170: 917a c4d2 f808 b8bf 74c6 cfe8 7f02 833f
00000180: ab5f 6c00 51ba b2bf 05a6 81bf 63e7 adbf
00000190: d2c7 e8a4 fd11 c33f 2d07 1fa2 18b5 c23f
000001a0: 2712 fd70 cd52 c9bf bc2a 39f5 7933 773f
000001b0: 05a6 81bf 63e7 adbf ab5f 6c00 51ba b2bf
000001c0: 543d de1a afb7 ba3f b6b5 9831 6531 b7bf
000001d0: 2b07 1fa2 18b5 c2bf f0fd 23e3 2828 9abf
000001e0: b0a6 fee1 32bc fcbf c553 cecd 60f6 b13f
000001f0: 29fc 422a 9c7a eabf 8465 fa0e e3f3 a0bf
00000200: df6f 4082 86e2 9fbf a774 3701 2d06 a7bf
00000210: c553 cecd 60f6 b13f b0a6 fee1 32bc fcbf
00000220: b88f a4df 373a b9bf 4b35 114b 6c76 c1bf
00000230: 7265 fa0e e3f3 a03f 4d2c 6cd8 540b d93f
00000240: d8ae 3b13 40df fabf c553 cecd 60f6 b13f
00000250: d1bf cb37 43aa d43f a59f 60fd adef babf
00000260: f5a2 ccff 2b2a db3f 94e0 3516 a8b9 a8bf
00000270: c553 cecd 60f6 b13f d8ae 3b13 40df fabf
00000280: d51f 48fd 57cf b3bf 61d0 6aac 12ef c3bf
00000290: 899f 60fd adef ba3f 149a 8212 046d c0bf
000002a0: 9476 2b5d bd8b f8bf c553 cecd 60f6 b13f
000002b0: 93ca 9e80 8010 d33f def9 d6dd 2f06 503f
000002c0: 6608 4ed2 5bf2 d83f 4ea0 37fc d9a8 b33f
000002d0: c553 cecd 60f6 b13f 9476 2b5d bd8b f8bf
000002e0: dd03 779a cdfb cc3f 47e8 4495 d921 b7bf
000002f0: 77fa d6dd 2f06 50bf 014a 135e f65f c4bf
00000300: 9c01 442f 3545 f9bf c553 cecd 60f6 b13f
00000310: c817 1489 f6ca e4bf 30da 20d0 0f48 c4bf
00000320: 396f 9117 b450 663f 36b3 2311 e9ca c03f
00000330: c553 cecd 60f6 b13f 9c01 442f 3545 f9bf
00000340: a970 9a91 d705 d23f 031e 5a96 2386 b1bf
00000350: 1dda 20d0 0f48 c43f eab6 7bb6 71c7 d13f
00000360: 2e19 d577 6e4a f9bf df53 cecd 60f6 b13f
00000370: 2c41 7289 75c7 bfbf 4264 d2ff b975 b3bf
00000380: c010 49af d3ce d13f 3a78 f165 bb31 a33f
00000390: df53 cecd 60f6 b13f 2e19 d577 6e4a f9bf
000003a0: b85e 40dd bc39 b73f 3180 6ca1 18dd c4bf
000003b0: 5664 d2ff b975 b33f 7ba5 a807 9012 af3f
000003c0: 8be8 7df4 5c18 1d40 30e1 dd21 ffe3 94bf
000003d0: 6198 22cb 7213 0640 04a8 9fab f0ab e0bf
000003e0: 52f5 bd4f 1c9c d93f 3386 1559 7e9c d63f
000003f0: 30e1 dd21 ffe3 94bf 8be8 7df4 5c18 1d40
00000400: 421e b412 a3df ed3f ad01 91b3 9fce e43f
00000410: 06a8 9fab f0ab e03f f9ac 4104 06f1 f2bf
00000420: e3b2 b646 8fe9 1a40 30e1 dd21 ffe3 94bf
00000430: 0be4 3386 d86a febf 41dd 3cde 3032 a3bf
00000440: 3cff 62b0 11dd e13f cb75 913f cd0d d33f
00000450: 30e1 dd21 ffe3 94bf e3b2 b646 8fe9 1a40
00000460: 059b 2531 8e7c e93f 0fbc 0bcd 7dc3 e53f
00000470: 30de 3cde 3032 a33f bd06 3e0b c7e2 f33f
00000480: 2584 e9ed 92f8 1b40 30e1 dd21 ffe3 94bf
00000490: 979d 4bac 99e3 fbbf 5a74 71e5 0f4b e5bf
000004a0: c724 f395 d4a4 d23f 9237 97d2 8757 d9bf
000004b0: 30e1 dd21 ffe3 94bf 2584 e9ed 92f8 1b40
000004c0: 014f 7953 39de e7bf f695 6708 7986 e23f
000004d0: 5e74 71e5 0f4b e53f c170 59bf dfd5 f13f
000004e0: 895f 9846 ec68 1b40 30e1 dd21 ffe3 94bf
000004f0: 85ad e0b3 301c 0440 3e74 c319 dd54 9a3f
00000500: 3e2c 4817 508e d63f 06e8 d51c 40d8 ddbf
00000510: 30e1 dd21 ffe3 94bf 895f 9846 ec68 1b40
00000520: 587c 7a9f dca2 ebbf 520b 9406 a77a e23f
00000530: 2974 c319 dd54 9abf 5805 51f0 6aca f2bf
00000540: 1eb2 e5e3 830f 1c40 f0e1 dd21 ffe3 94bf
00000550: 80d1 0edd 92c3 d13f 9c0a fe74 b47d d3bf
00000560: 9443 544c 0b2b dbbf c520 893b aed6 91bf
00000570: f0e1 dd21 ffe3 94bf 1eb2 e5e3 830f 1c40
00000580: 3c9d 6899 75bf 993f 0bf2 f472 549b eb3f
00000590: 9e0a fe74 b47d d33f a3dd 4cc4 ccbb b1bf
000005a0: 3296 c971 63a1 01c0 a31f 9786 3a7a b73f
000005b0: 06a3 fa54 d80c e6bf d339 dfcf 2c6e a8bf
000005c0: 1060 bd50 6a6e aa3f d7a2 0387 d598 ac3f
000005d0: a31f 9786 3a7a b73f 3296 c971 63a1 01c0
000005e0: 8b7c 7db3 0d82 a23f 5a1f a50e bcc7 a6bf
000005f0: 8039 dfcf 2c6e a83f 2539 cbbb 96ae d53f
00000600: 71db fcfa d35f 00c0 a31f 9786 3a7a b73f
00000610: 0fb4 b5b7 0229 e93f 0551 74b5 f65a a1bf
00000620: 1b9b b095 c359 bebf 37bf 3610 b91c b13f
00000630: a31f 9786 3a7a b73f 71db fcfa d35f 00c0
00000640: 12f8 c2cd d1c3 b13f 5851 7e99 21cf b2bf
00000650: 3451 74b5 f65a a13f 81b4 e9d0 63d7 e1bf
00000660: 5a0d 161d 33f2 ffbf a31f 9786 3a7a b73f
00000670: 2dc1 6209 1243 e53f e9aa 1842 5057 ca3f
00000680: fdb2 bd9a 0a2a c63f 00ae 75e8 4e0e ca3f
00000690: a31f 9786 3a7a b73f 5a0d 161d 33f2 ffbf
000006a0: 34ec 4935 4d18 dd3f 6727 7b2f db15 bd3f
000006b0: ecaa 1842 5057 cabf 75aa ce9b 1755 dabf
000006c0: 3ec5 4eb3 4f89 00c0 a31f 9786 3a7a b73f
000006d0: 46c5 a3a3 ec04 e4bf e083 a0d6 c41e c7bf
000006e0: e13d ef23 e014 c13f 7dcc e220 aae1 d03f
000006f0: a31f 9786 3a7a b73f 3ec5 4eb3 4f89 00c0
00000700: 5510 2946 2b72 e03f 916a f15c c560 c33f
00000710: dc83 a0d6 c41e c73f 33fa ef72 f62b d43f
00000720: 7cba 6f8e c705 00c0 3c20 9786 3a7a b73f
00000730: 90b5 860f 613a 79bf 7407 7d9c d33e 9abf
00000740: 0c1c 167f 4266 d63f 411a 649b db29 c23f
00000750: 3c20 9786 3a7a b73f 7cba 6f8e c705 00c0
00000760: 1dde 3551 c1bc d13f c00d e614 d17c 6a3f
00000770: e806 7d9c d33e 9a3f 1cd5 ba06 7df5 b63f
00000780: 902a f4a9 e125 d5bf eb17 5585 201a c0bf
00000790: 976e f38e cdef d33f a218 5d6e 2f1d d23f
000007a0: ab16 b004 7a58 b4bf 535b 2274 4fe6 b7bf
000007b0: eb17 5585 201a c0bf 902a f4a9 e125 d5bf
000007c0: b650 4efa 0a42 a6bf 3574 95f5 7935 c6bf
000007d0: 9b18 5d6e 2f1d d2bf 9417 763a 4be3 c6bf
000007e0: af85 4e75 4357 793f eb17 5585 201a c0bf
000007f0: ae45 e853 6ef0 cf3f 0ea8 30e8 f3a1 db3f
